[ INFO : 2022-07-26 19:30:06,418 ] - DeepGCCA(
  (model_list): ModuleList(
    (0): MlpNet(
      (layers): ModuleList(
        (0): Sequential(
          (0): Linear(in_features=2, out_features=1024, bias=True)
          (1): Sigmoid()
          (2): BatchNorm1d(1024, eps=1e-05, momentum=0.1, affine=False, track_running_stats=True)
        )
        (1): Sequential(
          (0): Linear(in_features=1024, out_features=512, bias=True)
          (1): Sigmoid()
          (2): BatchNorm1d(512, eps=1e-05, momentum=0.1, affine=False, track_running_stats=True)
        )
        (2): Sequential(
          (0): Linear(in_features=512, out_features=2, bias=True)
          (1): Sigmoid()
          (2): BatchNorm1d(2, eps=1e-05, momentum=0.1, affine=False, track_running_stats=True)
        )
      )
    )
    (1): MlpNet(
      (layers): ModuleList(
        (0): Sequential(
          (0): Linear(in_features=2, out_features=1024, bias=True)
          (1): Sigmoid()
          (2): BatchNorm1d(1024, eps=1e-05, momentum=0.1, affine=False, track_running_stats=True)
        )
        (1): Sequential(
          (0): Linear(in_features=1024, out_features=512, bias=True)
          (1): Sigmoid()
          (2): BatchNorm1d(512, eps=1e-05, momentum=0.1, affine=False, track_running_stats=True)
        )
        (2): Sequential(
          (0): Linear(in_features=512, out_features=2, bias=True)
          (1): Sigmoid()
          (2): BatchNorm1d(2, eps=1e-05, momentum=0.1, affine=False, track_running_stats=True)
        )
      )
    )
    (2): MlpNet(
      (layers): ModuleList(
        (0): Sequential(
          (0): Linear(in_features=2, out_features=1024, bias=True)
          (1): Sigmoid()
          (2): BatchNorm1d(1024, eps=1e-05, momentum=0.1, affine=False, track_running_stats=True)
        )
        (1): Sequential(
          (0): Linear(in_features=1024, out_features=512, bias=True)
          (1): Sigmoid()
          (2): BatchNorm1d(512, eps=1e-05, momentum=0.1, affine=False, track_running_stats=True)
        )
        (2): Sequential(
          (0): Linear(in_features=512, out_features=2, bias=True)
          (1): Sigmoid()
          (2): BatchNorm1d(2, eps=1e-05, momentum=0.1, affine=False, track_running_stats=True)
        )
      )
    )
  )
)
[ INFO : 2022-07-26 19:30:06,419 ] - Adam (
Parameter Group 0
    amsgrad: False
    betas: (0.9, 0.999)
    eps: 1e-08
    initial_lr: 0.01
    lr: 0.01
    maximize: False
    weight_decay: 1e-05
)
[ INFO : 2022-07-26 19:30:07,904 ] - Epoch 1/500 - time: 1.49 - training_loss: -5.9944
…
[ INFO : 2022-07-26 19:32:27,180 ] - Epoch 8/500 - time: 0.04 - training_loss: -5.9871
[ INFO : 2022-07-26 19:32:27,226 ] - Epoch 9/500 - time: 0.05 - training_loss: -5.9876
[ INFO : 2022-07-26 19:32:27,267 ] - Epoch 10/500 - time: 0.04 - training_loss: -5.9881
[ INFO : 2022-07-26 19:32:27,309 ] - Epoch 11/500 - time: 0.04 - training_loss: -5.9888
[ INFO : 2022-07-26 19:32:27,354 ] - Epoch 12/500 - time: 0.05 - training_loss: -5.9890
[ INFO : 2022-07-26 19:44:29,232 ] - DeepGCCA(
  (model_list): ModuleList(
    (0): MlpNet(
      (layers): ModuleList(
        (0): Sequential(
          (0): Linear(in_features=3072, out_features=1024, bias=True)
          (1): Sigmoid()
          (2): BatchNorm1d(1024, eps=1e-05, momentum=0.1, affine=False, track_running_stats=True)
        )
        (1): Sequential(
          (0): Linear(in_features=1024, out_features=512, bias=True)
          (1): Sigmoid()
          (2): BatchNorm1d(512, eps=1e-05, momentum=0.1, affine=False, track_running_stats=True)
        )
        (2): Sequential(
          (0): Linear(in_features=512, out_features=2, bias=True)
          (1): Sigmoid()
          (2): BatchNorm1d(2, eps=1e-05, momentum=0.1, affine=False, track_running_stats=True)
        )
      )
    )
    (1): MlpNet(
      (layers): ModuleList(
        (0): Sequential(
          (0): Linear(in_features=3072, out_features=1024, bias=True)
          (1): Sigmoid()
          (2): BatchNorm1d(1024, eps=1e-05, momentum=0.1, affine=False, track_running_stats=True)
        )
        (1): Sequential(
          (0): Linear(in_features=1024, out_features=512, bias=True)
          (1): Sigmoid()
          (2): BatchNorm1d(512, eps=1e-05, momentum=0.1, affine=False, track_running_stats=True)
        )
        (2): Sequential(
          (0): Linear(in_features=512, out_features=2, bias=True)
          (1): Sigmoid()
          (2): BatchNorm1d(2, eps=1e-05, momentum=0.1, affine=False, track_running_stats=True)
        )
      )
    )
    (2): MlpNet(
      (layers): ModuleList(
        (0): Sequential(
          (0): Linear(in_features=3072, out_features=1024, bias=True)
          (1): Sigmoid()
          (2): BatchNorm1d(1024, eps=1e-05, momentum=0.1, affine=False, track_running_stats=True)
        )
        (1): Sequential(
          (0): Linear(in_features=1024, out_features=512, bias=True)
          (1): Sigmoid()
          (2): BatchNorm1d(512, eps=1e-05, momentum=0.1, affine=False, track_running_stats=True)
        )
        (2): Sequential(
          (0): Linear(in_features=512, out_features=2, bias=True)
          (1): Sigmoid()
          (2): BatchNorm1d(2, eps=1e-05, momentum=0.1, affine=False, track_running_stats=True)
        )
      )
    )
  )
)
[ INFO : 2022-07-26 19:44:29,233 ] - Adam (
Parameter Group 0
    amsgrad: False
    betas: (0.9, 0.999)
    eps: 1e-08
    initial_lr: 0.01
    lr: 0.01
    maximize: False
    weight_decay: 1e-05
)
[ INFO : 2022-07-26 19:44:45,693 ] - DeepGCCA(
  (model_list): ModuleList(
    (0): MlpNet(
      (layers): ModuleList(
        (0): Sequential(
          (0): Linear(in_features=3072, out_features=1024, bias=True)
          (1): Sigmoid()
          (2): BatchNorm1d(1024, eps=1e-05, momentum=0.1, affine=False, track_running_stats=True)
        )
        (1): Sequential(
          (0): Linear(in_features=1024, out_features=512, bias=True)
          (1): Sigmoid()
          (2): BatchNorm1d(512, eps=1e-05, momentum=0.1, affine=False, track_running_stats=True)
        )
        (2): Sequential(
          (0): Linear(in_features=512, out_features=2, bias=True)
          (1): Sigmoid()
          (2): BatchNorm1d(2, eps=1e-05, momentum=0.1, affine=False, track_running_stats=True)
        )
      )
    )
    (1): MlpNet(
      (layers): ModuleList(
        (0): Sequential(
          (0): Linear(in_features=3072, out_features=1024, bias=True)
          (1): Sigmoid()
          (2): BatchNorm1d(1024, eps=1e-05, momentum=0.1, affine=False, track_running_stats=True)
        )
        (1): Sequential(
          (0): Linear(in_features=1024, out_features=512, bias=True)
          (1): Sigmoid()
          (2): BatchNorm1d(512, eps=1e-05, momentum=0.1, affine=False, track_running_stats=True)
        )
        (2): Sequential(
          (0): Linear(in_features=512, out_features=2, bias=True)
          (1): Sigmoid()
          (2): BatchNorm1d(2, eps=1e-05, momentum=0.1, affine=False, track_running_stats=True)
        )
      )
    )
    (2): MlpNet(
      (layers): ModuleList(
        (0): Sequential(
          (0): Linear(in_features=3072, out_features=1024, bias=True)
          (1): Sigmoid()
          (2): BatchNorm1d(1024, eps=1e-05, momentum=0.1, affine=False, track_running_stats=True)
        )
        (1): Sequential(
          (0): Linear(in_features=1024, out_features=512, bias=True)
          (1): Sigmoid()
          (2): BatchNorm1d(512, eps=1e-05, momentum=0.1, affine=False, track_running_stats=True)
        )
        (2): Sequential(
          (0): Linear(in_features=512, out_features=2, bias=True)
          (1): Sigmoid()
          (2): BatchNorm1d(2, eps=1e-05, momentum=0.1, affine=False, track_running_stats=True)
        )
      )
    )
  )
)
[ INFO : 2022-07-26 19:44:45,694 ] - Adam (
Parameter Group 0
    amsgrad: False
    betas: (0.9, 0.999)
    eps: 1e-08
    initial_lr: 0.01
    lr: 0.01
    maximize: False
    weight_decay: 1e-05
)
[ INFO : 2022-07-26 19:45:07,498 ] - DeepGCCA(
  (model_list): ModuleList(
    (0): MlpNet(
      (layers): ModuleList(
        (0): Sequential(
          (0): Linear(in_features=3072, out_features=1024, bias=True)
          (1): Sigmoid()
          (2): BatchNorm1d(1024, eps=1e-05, momentum=0.1, affine=False, track_running_stats=True)
        )
        (1): Sequential(
          (0): Linear(in_features=1024, out_features=512, bias=True)
          (1): Sigmoid()
          (2): BatchNorm1d(512, eps=1e-05, momentum=0.1, affine=False, track_running_stats=True)
        )
        (2): Sequential(
          (0): Linear(in_features=512, out_features=2, bias=True)
          (1): Sigmoid()
          (2): BatchNorm1d(2, eps=1e-05, momentum=0.1, affine=False, track_running_stats=True)
        )
      )
    )
    (1): MlpNet(
      (layers): ModuleList(
        (0): Sequential(
          (0): Linear(in_features=3072, out_features=1024, bias=True)
          (1): Sigmoid()
          (2): BatchNorm1d(1024, eps=1e-05, momentum=0.1, affine=False, track_running_stats=True)
        )
        (1): Sequential(
          (0): Linear(in_features=1024, out_features=512, bias=True)
          (1): Sigmoid()
          (2): BatchNorm1d(512, eps=1e-05, momentum=0.1, affine=False, track_running_stats=True)
        )
        (2): Sequential(
          (0): Linear(in_features=512, out_features=2, bias=True)
          (1): Sigmoid()
          (2): BatchNorm1d(2, eps=1e-05, momentum=0.1, affine=False, track_running_stats=True)
        )
      )
    )
    (2): MlpNet(
      (layers): ModuleList(
        (0): Sequential(
          (0): Linear(in_features=3072, out_features=1024, bias=True)
          (1): Sigmoid()
          (2): BatchNorm1d(1024, eps=1e-05, momentum=0.1, affine=False, track_running_stats=True)
        )
        (1): Sequential(
          (0): Linear(in_features=1024, out_features=512, bias=True)
          (1): Sigmoid()
          (2): BatchNorm1d(512, eps=1e-05, momentum=0.1, affine=False, track_running_stats=True)
        )
        (2): Sequential(
          (0): Linear(in_features=512, out_features=2, bias=True)
          (1): Sigmoid()
          (2): BatchNorm1d(2, eps=1e-05, momentum=0.1, affine=False, track_running_stats=True)
        )
      )
    )
  )
)
[ INFO : 2022-07-26 19:45:07,499 ] - Adam (
Parameter Group 0
    amsgrad: False
    betas: (0.9, 0.999)
    eps: 1e-08
    initial_lr: 0.01
    lr: 0.01
    maximize: False
    weight_decay: 1e-05
)
[ INFO : 2022-07-26 19:45:31,412 ] - DeepGCCA(
  (model_list): ModuleList(
    (0): MlpNet(
      (layers): ModuleList(
        (0): Sequential(
          (0): Linear(in_features=3072, out_features=1024, bias=True)
          (1): Sigmoid()
          (2): BatchNorm1d(1024, eps=1e-05, momentum=0.1, affine=False, track_running_stats=True)
        )
        (1): Sequential(
          (0): Linear(in_features=1024, out_features=512, bias=True)
          (1): Sigmoid()
          (2): BatchNorm1d(512, eps=1e-05, momentum=0.1, affine=False, track_running_stats=True)
        )
        (2): Sequential(
          (0): Linear(in_features=512, out_features=2, bias=True)
          (1): Sigmoid()
          (2): BatchNorm1d(2, eps=1e-05, momentum=0.1, affine=False, track_running_stats=True)
        )
      )
    )
    (1): MlpNet(
      (layers): ModuleList(
        (0): Sequential(
          (0): Linear(in_features=3072, out_features=1024, bias=True)
          (1): Sigmoid()
          (2): BatchNorm1d(1024, eps=1e-05, momentum=0.1, affine=False, track_running_stats=True)
        )
        (1): Sequential(
          (0): Linear(in_features=1024, out_features=512, bias=True)
          (1): Sigmoid()
          (2): BatchNorm1d(512, eps=1e-05, momentum=0.1, affine=False, track_running_stats=True)
        )
        (2): Sequential(
          (0): Linear(in_features=512, out_features=2, bias=True)
          (1): Sigmoid()
          (2): BatchNorm1d(2, eps=1e-05, momentum=0.1, affine=False, track_running_stats=True)
        )
      )
    )
    (2): MlpNet(
      (layers): ModuleList(
        (0): Sequential(
          (0): Linear(in_features=3072, out_features=1024, bias=True)
          (1): Sigmoid()
          (2): BatchNorm1d(1024, eps=1e-05, momentum=0.1, affine=False, track_running_stats=True)
        )
        (1): Sequential(
          (0): Linear(in_features=1024, out_features=512, bias=True)
          (1): Sigmoid()
          (2): BatchNorm1d(512, eps=1e-05, momentum=0.1, affine=False, track_running_stats=True)
        )
        (2): Sequential(
          (0): Linear(in_features=512, out_features=2, bias=True)
          (1): Sigmoid()
          (2): BatchNorm1d(2, eps=1e-05, momentum=0.1, affine=False, track_running_stats=True)
        )
      )
    )
  )
)
[ INFO : 2022-07-26 19:45:31,412 ] - Adam (
Parameter Group 0
    amsgrad: False
    betas: (0.9, 0.999)
    eps: 1e-08
    initial_lr: 0.01
    lr: 0.01
    maximize: False
    weight_decay: 1e-05
)
[ INFO : 2022-07-26 20:42:53,541 ] - DeepGCCA(
  (model_list): ModuleList(
    (0): MlpNet(
      (layers): ModuleList(
        (0): Sequential(
          (0): Linear(in_features=3072, out_features=1024, bias=True)
          (1): Sigmoid()
          (2): BatchNorm1d(1024, eps=1e-05, momentum=0.1, affine=False, track_running_stats=True)
        )
        (1): Sequential(
          (0): Linear(in_features=1024, out_features=512, bias=True)
          (1): Sigmoid()
          (2): BatchNorm1d(512, eps=1e-05, momentum=0.1, affine=False, track_running_stats=True)
        )
        (2): Sequential(
          (0): Linear(in_features=512, out_features=2, bias=True)
          (1): Sigmoid()
          (2): BatchNorm1d(2, eps=1e-05, momentum=0.1, affine=False, track_running_stats=True)
        )
      )
    )
    (1): MlpNet(
      (layers): ModuleList(
        (0): Sequential(
          (0): Linear(in_features=3072, out_features=1024, bias=True)
          (1): Sigmoid()
          (2): BatchNorm1d(1024, eps=1e-05, momentum=0.1, affine=False, track_running_stats=True)
        )
        (1): Sequential(
          (0): Linear(in_features=1024, out_features=512, bias=True)
          (1): Sigmoid()
          (2): BatchNorm1d(512, eps=1e-05, momentum=0.1, affine=False, track_running_stats=True)
        )
        (2): Sequential(
          (0): Linear(in_features=512, out_features=2, bias=True)
          (1): Sigmoid()
          (2): BatchNorm1d(2, eps=1e-05, momentum=0.1, affine=False, track_running_stats=True)
        )
      )
    )
    (2): MlpNet(
      (layers): ModuleList(
        (0): Sequential(
          (0): Linear(in_features=3072, out_features=1024, bias=True)
          (1): Sigmoid()
          (2): BatchNorm1d(1024, eps=1e-05, momentum=0.1, affine=False, track_running_stats=True)
        )
        (1): Sequential(
          (0): Linear(in_features=1024, out_features=512, bias=True)
          (1): Sigmoid()
          (2): BatchNorm1d(512, eps=1e-05, momentum=0.1, affine=False, track_running_stats=True)
        )
        (2): Sequential(
          (0): Linear(in_features=512, out_features=2, bias=True)
          (1): Sigmoid()
          (2): BatchNorm1d(2, eps=1e-05, momentum=0.1, affine=False, track_running_stats=True)
        )
      )
    )
  )
)
[ INFO : 2022-07-26 20:42:53,542 ] - Adam (
Parameter Group 0
    amsgrad: False
    betas: (0.9, 0.999)
    eps: 1e-08
    initial_lr: 0.01
    lr: 0.01
    maximize: False
    weight_decay: 1e-05
)
[ INFO : 2022-07-26 20:43:06,627 ] - DeepGCCA(
  (model_list): ModuleList(
    (0): MlpNet(
      (layers): ModuleList(
        (0): Sequential(
          (0): Linear(in_features=3072, out_features=1024, bias=True)
          (1): Sigmoid()
          (2): BatchNorm1d(1024, eps=1e-05, momentum=0.1, affine=False, track_running_stats=True)
        )
        (1): Sequential(
          (0): Linear(in_features=1024, out_features=512, bias=True)
          (1): Sigmoid()
          (2): BatchNorm1d(512, eps=1e-05, momentum=0.1, affine=False, track_running_stats=True)
        )
        (2): Sequential(
          (0): Linear(in_features=512, out_features=2, bias=True)
          (1): Sigmoid()
          (2): BatchNorm1d(2, eps=1e-05, momentum=0.1, affine=False, track_running_stats=True)
        )
      )
    )
    (1): MlpNet(
      (layers): ModuleList(
        (0): Sequential(
          (0): Linear(in_features=3072, out_features=1024, bias=True)
          (1): Sigmoid()
          (2): BatchNorm1d(1024, eps=1e-05, momentum=0.1, affine=False, track_running_stats=True)
        )
        (1): Sequential(
          (0): Linear(in_features=1024, out_features=512, bias=True)
          (1): Sigmoid()
          (2): BatchNorm1d(512, eps=1e-05, momentum=0.1, affine=False, track_running_stats=True)
        )
        (2): Sequential(
          (0): Linear(in_features=512, out_features=2, bias=True)
          (1): Sigmoid()
          (2): BatchNorm1d(2, eps=1e-05, momentum=0.1, affine=False, track_running_stats=True)
        )
      )
    )
    (2): MlpNet(
      (layers): ModuleList(
        (0): Sequential(
          (0): Linear(in_features=3072, out_features=1024, bias=True)
          (1): Sigmoid()
          (2): BatchNorm1d(1024, eps=1e-05, momentum=0.1, affine=False, track_running_stats=True)
        )
        (1): Sequential(
          (0): Linear(in_features=1024, out_features=512, bias=True)
          (1): Sigmoid()
          (2): BatchNorm1d(512, eps=1e-05, momentum=0.1, affine=False, track_running_stats=True)
        )
        (2): Sequential(
          (0): Linear(in_features=512, out_features=2, bias=True)
          (1): Sigmoid()
          (2): BatchNorm1d(2, eps=1e-05, momentum=0.1, affine=False, track_running_stats=True)
        )
      )
    )
  )
)
[ INFO : 2022-07-26 20:43:06,628 ] - Adam (
Parameter Group 0
    amsgrad: False
    betas: (0.9, 0.999)
    eps: 1e-08
    initial_lr: 0.01
    lr: 0.01
    maximize: False
    weight_decay: 1e-05
)
[ INFO : 2022-07-26 20:43:22,364 ] - DeepGCCA(
  (model_list): ModuleList(
    (0): MlpNet(
      (layers): ModuleList(
        (0): Sequential(
          (0): Linear(in_features=3072, out_features=1024, bias=True)
          (1): Sigmoid()
          (2): BatchNorm1d(1024, eps=1e-05, momentum=0.1, affine=False, track_running_stats=True)
        )
        (1): Sequential(
          (0): Linear(in_features=1024, out_features=512, bias=True)
          (1): Sigmoid()
          (2): BatchNorm1d(512, eps=1e-05, momentum=0.1, affine=False, track_running_stats=True)
        )
        (2): Sequential(
          (0): Linear(in_features=512, out_features=2, bias=True)
          (1): Sigmoid()
          (2): BatchNorm1d(2, eps=1e-05, momentum=0.1, affine=False, track_running_stats=True)
        )
      )
    )
    (1): MlpNet(
      (layers): ModuleList(
        (0): Sequential(
          (0): Linear(in_features=3072, out_features=1024, bias=True)
          (1): Sigmoid()
          (2): BatchNorm1d(1024, eps=1e-05, momentum=0.1, affine=False, track_running_stats=True)
        )
        (1): Sequential(
          (0): Linear(in_features=1024, out_features=512, bias=True)
          (1): Sigmoid()
          (2): BatchNorm1d(512, eps=1e-05, momentum=0.1, affine=False, track_running_stats=True)
        )
        (2): Sequential(
          (0): Linear(in_features=512, out_features=2, bias=True)
          (1): Sigmoid()
          (2): BatchNorm1d(2, eps=1e-05, momentum=0.1, affine=False, track_running_stats=True)
        )
      )
    )
    (2): MlpNet(
      (layers): ModuleList(
        (0): Sequential(
          (0): Linear(in_features=3072, out_features=1024, bias=True)
          (1): Sigmoid()
          (2): BatchNorm1d(1024, eps=1e-05, momentum=0.1, affine=False, track_running_stats=True)
        )
        (1): Sequential(
          (0): Linear(in_features=1024, out_features=512, bias=True)
          (1): Sigmoid()
          (2): BatchNorm1d(512, eps=1e-05, momentum=0.1, affine=False, track_running_stats=True)
        )
        (2): Sequential(
          (0): Linear(in_features=512, out_features=2, bias=True)
          (1): Sigmoid()
          (2): BatchNorm1d(2, eps=1e-05, momentum=0.1, affine=False, track_running_stats=True)
        )
      )
    )
  )
)
[ INFO : 2022-07-26 20:43:22,365 ] - Adam (
Parameter Group 0
    amsgrad: False
    betas: (0.9, 0.999)
    eps: 1e-08
    initial_lr: 0.01
    lr: 0.01
    maximize: False
    weight_decay: 1e-05
)
[ INFO : 2022-07-26 20:43:27,753 ] - Epoch 1: val_loss improved from 0.0000 to -5.3818, saving model to ./DGCCA.model
…
[ INFO : 2022-07-26 20:44:08,883 ] - Epoch 11: val_loss improved from 0.0000 to -1.7316, saving model to ./DGCCA.model
[ INFO : 2022-07-26 20:44:09,153 ] - Epoch 11/500 - time: 4.03 - training_loss: -5.9429 - val_loss: -1.7316
[ INFO : 2022-07-26 20:44:13,087 ] - Epoch 12: val_loss improved from 0.0000 to -1.7322, saving model to ./DGCCA.model
[ INFO : 2022-07-26 20:44:13,325 ] - Epoch 12/500 - time: 4.17 - training_loss: -5.9412 - val_loss: -1.7322
[ INFO : 2022-07-26 20:44:20,308 ] - DeepGCCA(
  (model_list): ModuleList(
    (0): MlpNet(
      (layers): ModuleList(
        (0): Sequential(
          (0): Linear(in_features=3072, out_features=1024, bias=True)
          (1): Sigmoid()
          (2): BatchNorm1d(1024, eps=1e-05, momentum=0.1, affine=False, track_running_stats=True)
        )
        (1): Sequential(
          (0): Linear(in_features=1024, out_features=512, bias=True)
          (1): Sigmoid()
          (2): BatchNorm1d(512, eps=1e-05, momentum=0.1, affine=False, track_running_stats=True)
        )
        (2): Sequential(
          (0): Linear(in_features=512, out_features=2, bias=True)
          (1): Sigmoid()
          (2): BatchNorm1d(2, eps=1e-05, momentum=0.1, affine=False, track_running_stats=True)
        )
      )
    )
    (1): MlpNet(
      (layers): ModuleList(
        (0): Sequential(
          (0): Linear(in_features=3072, out_features=1024, bias=True)
          (1): Sigmoid()
          (2): BatchNorm1d(1024, eps=1e-05, momentum=0.1, affine=False, track_running_stats=True)
        )
        (1): Sequential(
          (0): Linear(in_features=1024, out_features=512, bias=True)
          (1): Sigmoid()
          (2): BatchNorm1d(512, eps=1e-05, momentum=0.1, affine=False, track_running_stats=True)
        )
        (2): Sequential(
          (0): Linear(in_features=512, out_features=2, bias=True)
          (1): Sigmoid()
          (2): BatchNorm1d(2, eps=1e-05, momentum=0.1, affine=False, track_running_stats=True)
        )
      )
    )
    (2): MlpNet(
      (layers): ModuleList(
        (0): Sequential(
          (0): Linear(in_features=3072, out_features=1024, bias=True)
          (1): Sigmoid()
          (2): BatchNorm1d(1024, eps=1e-05, momentum=0.1, affine=False, track_running_stats=True)
        )
        (1): Sequential(
          (0): Linear(in_features=1024, out_features=512, bias=True)
          (1): Sigmoid()
          (2): BatchNorm1d(512, eps=1e-05, momentum=0.1, affine=False, track_running_stats=True)
        )
        (2): Sequential(
          (0): Linear(in_features=512, out_features=2, bias=True)
          (1): Sigmoid()
          (2): BatchNorm1d(2, eps=1e-05, momentum=0.1, affine=False, track_running_stats=True)
        )
      )
    )
  )
)
[ INFO : 2022-07-26 20:44:20,309 ] - Adam (
Parameter Group 0
    amsgrad: False
    betas: (0.9, 0.999)
    eps: 1e-08
    initial_lr: 0.01
    lr: 0.01
    maximize: False
    weight_decay: 1e-05
)
[ INFO : 2022-07-26 20:44:25,307 ] - Epoch 1: val_loss improved from 0.0000 to -5.4741, saving model to ./DGCCA.model
…
[ INFO : 2022-07-26 20:45:28,916 ] - Epoch 18/500 - time: 3.75 - training_loss: -5.9425 - val_loss: -1.7322
[ INFO : 2022-07-26 20:45:32,869 ] - Epoch 19: val_loss did not improve from -5.9050
[ INFO : 2022-07-26 20:45:32,869 ] - Epoch 19/500 - time: 3.95 - training_loss: -5.9433 - val_loss: -1.7322
[ INFO : 2022-07-26 20:45:36,593 ] - Epoch 20: val_loss did not improve from -5.9050
[ INFO : 2022-07-26 20:45:36,593 ] - Epoch 20/500 - time: 3.72 - training_loss: -5.9430 - val_loss: -1.7322
[ INFO : 2022-07-26 20:45:41,406 ] - DeepGCCA(
  (model_list): ModuleList(
    (0): MlpNet(
      (layers): ModuleList(
        (0): Sequential(
          (0): Linear(in_features=3072, out_features=1024, bias=True)
          (1): Sigmoid()
          (2): BatchNorm1d(1024, eps=1e-05, momentum=0.1, affine=False, track_running_stats=True)
        )
        (1): Sequential(
          (0): Linear(in_features=1024, out_features=512, bias=True)
          (1): Sigmoid()
          (2): BatchNorm1d(512, eps=1e-05, momentum=0.1, affine=False, track_running_stats=True)
        )
        (2): Sequential(
          (0): Linear(in_features=512, out_features=256, bias=True)
          (1): Sigmoid()
          (2): BatchNorm1d(256, eps=1e-05, momentum=0.1, affine=False, track_running_stats=True)
        )
      )
    )
    (1): MlpNet(
      (layers): ModuleList(
        (0): Sequential(
          (0): Linear(in_features=3072, out_features=1024, bias=True)
          (1): Sigmoid()
          (2): BatchNorm1d(1024, eps=1e-05, momentum=0.1, affine=False, track_running_stats=True)
        )
        (1): Sequential(
          (0): Linear(in_features=1024, out_features=512, bias=True)
          (1): Sigmoid()
          (2): BatchNorm1d(512, eps=1e-05, momentum=0.1, affine=False, track_running_stats=True)
        )
        (2): Sequential(
          (0): Linear(in_features=512, out_features=256, bias=True)
          (1): Sigmoid()
          (2): BatchNorm1d(256, eps=1e-05, momentum=0.1, affine=False, track_running_stats=True)
        )
      )
    )
    (2): MlpNet(
      (layers): ModuleList(
        (0): Sequential(
          (0): Linear(in_features=3072, out_features=1024, bias=True)
          (1): Sigmoid()
          (2): BatchNorm1d(1024, eps=1e-05, momentum=0.1, affine=False, track_running_stats=True)
        )
        (1): Sequential(
          (0): Linear(in_features=1024, out_features=512, bias=True)
          (1): Sigmoid()
          (2): BatchNorm1d(512, eps=1e-05, momentum=0.1, affine=False, track_running_stats=True)
        )
        (2): Sequential(
          (0): Linear(in_features=512, out_features=256, bias=True)
          (1): Sigmoid()
          (2): BatchNorm1d(256, eps=1e-05, momentum=0.1, affine=False, track_running_stats=True)
        )
      )
    )
  )
)
[ INFO : 2022-07-26 20:45:41,407 ] - Adam (
Parameter Group 0
    amsgrad: False
    betas: (0.9, 0.999)
    eps: 1e-08
    initial_lr: 0.01
    lr: 0.01
    maximize: False
    weight_decay: 1e-05
)
[ INFO : 2022-07-26 20:45:50,396 ] - DeepGCCA(
  (model_list): ModuleList(
    (0): MlpNet(
      (layers): ModuleList(
        (0): Sequential(
          (0): Linear(in_features=3072, out_features=1024, bias=True)
          (1): Sigmoid()
          (2): BatchNorm1d(1024, eps=1e-05, momentum=0.1, affine=False, track_running_stats=True)
        )
        (1): Sequential(
          (0): Linear(in_features=1024, out_features=1024, bias=True)
          (1): Sigmoid()
          (2): BatchNorm1d(1024, eps=1e-05, momentum=0.1, affine=False, track_running_stats=True)
        )
        (2): Sequential(
          (0): Linear(in_features=1024, out_features=256, bias=True)
          (1): Sigmoid()
          (2): BatchNorm1d(256, eps=1e-05, momentum=0.1, affine=False, track_running_stats=True)
        )
      )
    )
    (1): MlpNet(
      (layers): ModuleList(
        (0): Sequential(
          (0): Linear(in_features=3072, out_features=1024, bias=True)
          (1): Sigmoid()
          (2): BatchNorm1d(1024, eps=1e-05, momentum=0.1, affine=False, track_running_stats=True)
        )
        (1): Sequential(
          (0): Linear(in_features=1024, out_features=1024, bias=True)
          (1): Sigmoid()
          (2): BatchNorm1d(1024, eps=1e-05, momentum=0.1, affine=False, track_running_stats=True)
        )
        (2): Sequential(
          (0): Linear(in_features=1024, out_features=256, bias=True)
          (1): Sigmoid()
          (2): BatchNorm1d(256, eps=1e-05, momentum=0.1, affine=False, track_running_stats=True)
        )
      )
    )
    (2): MlpNet(
      (layers): ModuleList(
        (0): Sequential(
          (0): Linear(in_features=3072, out_features=1024, bias=True)
          (1): Sigmoid()
          (2): BatchNorm1d(1024, eps=1e-05, momentum=0.1, affine=False, track_running_stats=True)
        )
        (1): Sequential(
          (0): Linear(in_features=1024, out_features=1024, bias=True)
          (1): Sigmoid()
          (2): BatchNorm1d(1024, eps=1e-05, momentum=0.1, affine=False, track_running_stats=True)
        )
        (2): Sequential(
          (0): Linear(in_features=1024, out_features=256, bias=True)
          (1): Sigmoid()
          (2): BatchNorm1d(256, eps=1e-05, momentum=0.1, affine=False, track_running_stats=True)
        )
      )
    )
  )
)
[ INFO : 2022-07-26 20:45:50,397 ] - Adam (
Parameter Group 0
    amsgrad: False
    betas: (0.9, 0.999)
    eps: 1e-08
    initial_lr: 0.01
    lr: 0.01
    maximize: False
    weight_decay: 1e-05
)
[ INFO : 2022-07-26 20:45:57,642 ] - Epoch 1: val_loss improved from 0.0000 to -15.2852, saving model to ./DGCCA.model
…
[ INFO : 2022-07-26 20:46:27,216 ] - Epoch 6/500 - time: 6.05 - training_loss: -14.9890 - val_loss: -14.0156
[ INFO : 2022-07-26 20:46:33,206 ] - Epoch 7: val_loss did not improve from -15.2852
[ INFO : 2022-07-26 20:46:33,206 ] - Epoch 7/500 - time: 5.99 - training_loss: -14.9318 - val_loss: -14.1645
[ INFO : 2022-07-26 20:46:39,105 ] - Epoch 8: val_loss did not improve from -15.2852
[ INFO : 2022-07-26 20:46:39,105 ] - Epoch 8/500 - time: 5.90 - training_loss: -14.8908 - val_loss: -13.7583
[ INFO : 2022-07-26 20:46:45,015 ] - DeepGCCA(
  (model_list): ModuleList(
    (0): MlpNet(
      (layers): ModuleList(
        (0): Sequential(
          (0): Linear(in_features=3072, out_features=1024, bias=True)
          (1): Sigmoid()
          (2): BatchNorm1d(1024, eps=1e-05, momentum=0.1, affine=False, track_running_stats=True)
        )
        (1): Sequential(
          (0): Linear(in_features=1024, out_features=1024, bias=True)
          (1): Sigmoid()
          (2): BatchNorm1d(1024, eps=1e-05, momentum=0.1, affine=False, track_running_stats=True)
        )
        (2): Sequential(
          (0): Linear(in_features=1024, out_features=256, bias=True)
          (1): Sigmoid()
          (2): BatchNorm1d(256, eps=1e-05, momentum=0.1, affine=False, track_running_stats=True)
        )
      )
    )
    (1): MlpNet(
      (layers): ModuleList(
        (0): Sequential(
          (0): Linear(in_features=3072, out_features=1024, bias=True)
          (1): Sigmoid()
          (2): BatchNorm1d(1024, eps=1e-05, momentum=0.1, affine=False, track_running_stats=True)
        )
        (1): Sequential(
          (0): Linear(in_features=1024, out_features=1024, bias=True)
          (1): Sigmoid()
          (2): BatchNorm1d(1024, eps=1e-05, momentum=0.1, affine=False, track_running_stats=True)
        )
        (2): Sequential(
          (0): Linear(in_features=1024, out_features=256, bias=True)
          (1): Sigmoid()
          (2): BatchNorm1d(256, eps=1e-05, momentum=0.1, affine=False, track_running_stats=True)
        )
      )
    )
    (2): MlpNet(
      (layers): ModuleList(
        (0): Sequential(
          (0): Linear(in_features=3072, out_features=1024, bias=True)
          (1): Sigmoid()
          (2): BatchNorm1d(1024, eps=1e-05, momentum=0.1, affine=False, track_running_stats=True)
        )
        (1): Sequential(
          (0): Linear(in_features=1024, out_features=1024, bias=True)
          (1): Sigmoid()
          (2): BatchNorm1d(1024, eps=1e-05, momentum=0.1, affine=False, track_running_stats=True)
        )
        (2): Sequential(
          (0): Linear(in_features=1024, out_features=256, bias=True)
          (1): Sigmoid()
          (2): BatchNorm1d(256, eps=1e-05, momentum=0.1, affine=False, track_running_stats=True)
        )
      )
    )
  )
)
[ INFO : 2022-07-26 20:46:45,017 ] - Adam (
Parameter Group 0
    amsgrad: False
    betas: (0.9, 0.999)
    eps: 1e-08
    initial_lr: 0.001
    lr: 0.001
    maximize: False
    weight_decay: 1e-05
)
[ INFO : 2022-07-26 20:46:52,411 ] - Epoch 1: val_loss improved from 0.0000 to -15.5285, saving model to ./DGCCA.model
…
[ INFO : 2022-07-26 22:31:18,013 ] - Epoch 199: val_loss improved from -17.3156 to -17.3156, saving model to ./DGCCA.model
[ INFO : 2022-07-26 22:31:18,284 ] - Epoch 199/200 - time: 7.57 - training_loss: -17.2515 - val_loss: -17.3156
[ INFO : 2022-07-26 22:31:25,600 ] - Epoch 200: val_loss improved from -17.3156 to -17.3156, saving model to ./DGCCA.model
[ INFO : 2022-07-26 22:31:25,869 ] - Epoch 200/200 - time: 7.59 - training_loss: -17.2519 - val_loss: -17.3156
[ INFO : 2022-07-26 22:31:29,566 ] - loss on validation data: -17.3156
[ INFO : 2022-07-27 15:05:54,191 ] - DeepGCCA(
  (model_list): ModuleList(
    (0): MlpNet(
      (layers): ModuleList(
        (0): Sequential(
          (0): Linear(in_features=3072, out_features=1024, bias=True)
          (1): Sigmoid()
          (2): BatchNorm1d(1024, eps=1e-05, momentum=0.1, affine=False, track_running_stats=True)
        )
        (1): Sequential(
          (0): Linear(in_features=1024, out_features=1024, bias=True)
          (1): Sigmoid()
          (2): BatchNorm1d(1024, eps=1e-05, momentum=0.1, affine=False, track_running_stats=True)
        )
        (2): Sequential(
          (0): Linear(in_features=1024, out_features=256, bias=True)
          (1): Sigmoid()
          (2): BatchNorm1d(256, eps=1e-05, momentum=0.1, affine=False, track_running_stats=True)
        )
      )
    )
    (1): MlpNet(
      (layers): ModuleList(
        (0): Sequential(
          (0): Linear(in_features=3072, out_features=1024, bias=True)
          (1): Sigmoid()
          (2): BatchNorm1d(1024, eps=1e-05, momentum=0.1, affine=False, track_running_stats=True)
        )
        (1): Sequential(
          (0): Linear(in_features=1024, out_features=1024, bias=True)
          (1): Sigmoid()
          (2): BatchNorm1d(1024, eps=1e-05, momentum=0.1, affine=False, track_running_stats=True)
        )
        (2): Sequential(
          (0): Linear(in_features=1024, out_features=256, bias=True)
          (1): Sigmoid()
          (2): BatchNorm1d(256, eps=1e-05, momentum=0.1, affine=False, track_running_stats=True)
        )
      )
    )
    (2): MlpNet(
      (layers): ModuleList(
        (0): Sequential(
          (0): Linear(in_features=3072, out_features=1024, bias=True)
          (1): Sigmoid()
          (2): BatchNorm1d(1024, eps=1e-05, momentum=0.1, affine=False, track_running_stats=True)
        )
        (1): Sequential(
          (0): Linear(in_features=1024, out_features=1024, bias=True)
          (1): Sigmoid()
          (2): BatchNorm1d(1024, eps=1e-05, momentum=0.1, affine=False, track_running_stats=True)
        )
        (2): Sequential(
          (0): Linear(in_features=1024, out_features=256, bias=True)
          (1): Sigmoid()
          (2): BatchNorm1d(256, eps=1e-05, momentum=0.1, affine=False, track_running_stats=True)
        )
      )
    )
  )
)
[ INFO : 2022-07-27 15:05:54,197 ] - Adam (
Parameter Group 0
    amsgrad: False
    betas: (0.9, 0.999)
    eps: 1e-08
    initial_lr: 0.001
    lr: 0.001
    maximize: False
    weight_decay: 1e-05
)
[ INFO : 2022-07-27 15:37:00,923 ] - DeepGCCA(
  (model_list): ModuleList(
    (0): MlpNet(
      (layers): ModuleList(
        (0): Sequential(
          (0): Linear(in_features=3072, out_features=1024, bias=True)
          (1): Sigmoid()
          (2): BatchNorm1d(1024, eps=1e-05, momentum=0.1, affine=False, track_running_stats=True)
        )
        (1): Sequential(
          (0): Linear(in_features=1024, out_features=1024, bias=True)
          (1): Sigmoid()
          (2): BatchNorm1d(1024, eps=1e-05, momentum=0.1, affine=False, track_running_stats=True)
        )
        (2): Sequential(
          (0): Linear(in_features=1024, out_features=256, bias=True)
          (1): Sigmoid()
          (2): BatchNorm1d(256, eps=1e-05, momentum=0.1, affine=False, track_running_stats=True)
        )
      )
    )
    (1): MlpNet(
      (layers): ModuleList(
        (0): Sequential(
          (0): Linear(in_features=3072, out_features=1024, bias=True)
          (1): Sigmoid()
          (2): BatchNorm1d(1024, eps=1e-05, momentum=0.1, affine=False, track_running_stats=True)
        )
        (1): Sequential(
          (0): Linear(in_features=1024, out_features=1024, bias=True)
          (1): Sigmoid()
          (2): BatchNorm1d(1024, eps=1e-05, momentum=0.1, affine=False, track_running_stats=True)
        )
        (2): Sequential(
          (0): Linear(in_features=1024, out_features=256, bias=True)
          (1): Sigmoid()
          (2): BatchNorm1d(256, eps=1e-05, momentum=0.1, affine=False, track_running_stats=True)
        )
      )
    )
    (2): MlpNet(
      (layers): ModuleList(
        (0): Sequential(
          (0): Linear(in_features=3072, out_features=1024, bias=True)
          (1): Sigmoid()
          (2): BatchNorm1d(1024, eps=1e-05, momentum=0.1, affine=False, track_running_stats=True)
        )
        (1): Sequential(
          (0): Linear(in_features=1024, out_features=1024, bias=True)
          (1): Sigmoid()
          (2): BatchNorm1d(1024, eps=1e-05, momentum=0.1, affine=False, track_running_stats=True)
        )
        (2): Sequential(
          (0): Linear(in_features=1024, out_features=256, bias=True)
          (1): Sigmoid()
          (2): BatchNorm1d(256, eps=1e-05, momentum=0.1, affine=False, track_running_stats=True)
        )
      )
    )
  )
)
[ INFO : 2022-07-27 15:37:00,924 ] - Adam (
Parameter Group 0
    amsgrad: False
    betas: (0.9, 0.999)
    eps: 1e-08
    initial_lr: 0.001
    lr: 0.001
    maximize: False
    weight_decay: 1e-05
)
[ INFO : 2022-07-27 15:37:15,243 ] - DeepGCCA(
  (model_list): ModuleList(
    (0): MlpNet(
      (layers): ModuleList(
        (0): Sequential(
          (0): Linear(in_features=3072, out_features=1024, bias=True)
          (1): Sigmoid()
          (2): BatchNorm1d(1024, eps=1e-05, momentum=0.1, affine=False, track_running_stats=True)
        )
        (1): Sequential(
          (0): Linear(in_features=1024, out_features=1024, bias=True)
          (1): Sigmoid()
          (2): BatchNorm1d(1024, eps=1e-05, momentum=0.1, affine=False, track_running_stats=True)
        )
        (2): Sequential(
          (0): Linear(in_features=1024, out_features=256, bias=True)
          (1): Sigmoid()
          (2): BatchNorm1d(256, eps=1e-05, momentum=0.1, affine=False, track_running_stats=True)
        )
      )
    )
    (1): MlpNet(
      (layers): ModuleList(
        (0): Sequential(
          (0): Linear(in_features=3072, out_features=1024, bias=True)
          (1): Sigmoid()
          (2): BatchNorm1d(1024, eps=1e-05, momentum=0.1, affine=False, track_running_stats=True)
        )
        (1): Sequential(
          (0): Linear(in_features=1024, out_features=1024, bias=True)
          (1): Sigmoid()
          (2): BatchNorm1d(1024, eps=1e-05, momentum=0.1, affine=False, track_running_stats=True)
        )
        (2): Sequential(
          (0): Linear(in_features=1024, out_features=256, bias=True)
          (1): Sigmoid()
          (2): BatchNorm1d(256, eps=1e-05, momentum=0.1, affine=False, track_running_stats=True)
        )
      )
    )
    (2): MlpNet(
      (layers): ModuleList(
        (0): Sequential(
          (0): Linear(in_features=3072, out_features=1024, bias=True)
          (1): Sigmoid()
          (2): BatchNorm1d(1024, eps=1e-05, momentum=0.1, affine=False, track_running_stats=True)
        )
        (1): Sequential(
          (0): Linear(in_features=1024, out_features=1024, bias=True)
          (1): Sigmoid()
          (2): BatchNorm1d(1024, eps=1e-05, momentum=0.1, affine=False, track_running_stats=True)
        )
        (2): Sequential(
          (0): Linear(in_features=1024, out_features=256, bias=True)
          (1): Sigmoid()
          (2): BatchNorm1d(256, eps=1e-05, momentum=0.1, affine=False, track_running_stats=True)
        )
      )
    )
  )
)
[ INFO : 2022-07-27 15:37:15,243 ] - Adam (
Parameter Group 0
    amsgrad: False
    betas: (0.9, 0.999)
    eps: 1e-08
    initial_lr: 0.001
    lr: 0.001
    maximize: False
    weight_decay: 1e-05
)
[ INFO : 2022-07-27 16:30:41,129 ] - DeepGCCA(
  (model_list): ModuleList(
    (0): MlpNet(
      (layers): ModuleList(
        (0): Sequential(
          (0): Linear(in_features=3072, out_features=1024, bias=True)
          (1): Sigmoid()
          (2): BatchNorm1d(1024, eps=1e-05, momentum=0.1, affine=False, track_running_stats=True)
        )
        (1): Sequential(
          (0): Linear(in_features=1024, out_features=1024, bias=True)
          (1): Sigmoid()
          (2): BatchNorm1d(1024, eps=1e-05, momentum=0.1, affine=False, track_running_stats=True)
        )
        (2): Sequential(
          (0): Linear(in_features=1024, out_features=256, bias=True)
          (1): Sigmoid()
          (2): BatchNorm1d(256, eps=1e-05, momentum=0.1, affine=False, track_running_stats=True)
        )
      )
    )
    (1): MlpNet(
      (layers): ModuleList(
        (0): Sequential(
          (0): Linear(in_features=3072, out_features=1024, bias=True)
          (1): Sigmoid()
          (2): BatchNorm1d(1024, eps=1e-05, momentum=0.1, affine=False, track_running_stats=True)
        )
        (1): Sequential(
          (0): Linear(in_features=1024, out_features=1024, bias=True)
          (1): Sigmoid()
          (2): BatchNorm1d(1024, eps=1e-05, momentum=0.1, affine=False, track_running_stats=True)
        )
        (2): Sequential(
          (0): Linear(in_features=1024, out_features=256, bias=True)
          (1): Sigmoid()
          (2): BatchNorm1d(256, eps=1e-05, momentum=0.1, affine=False, track_running_stats=True)
        )
      )
    )
    (2): MlpNet(
      (layers): ModuleList(
        (0): Sequential(
          (0): Linear(in_features=3072, out_features=1024, bias=True)
          (1): Sigmoid()
          (2): BatchNorm1d(1024, eps=1e-05, momentum=0.1, affine=False, track_running_stats=True)
        )
        (1): Sequential(
          (0): Linear(in_features=1024, out_features=1024, bias=True)
          (1): Sigmoid()
          (2): BatchNorm1d(1024, eps=1e-05, momentum=0.1, affine=False, track_running_stats=True)
        )
        (2): Sequential(
          (0): Linear(in_features=1024, out_features=256, bias=True)
          (1): Sigmoid()
          (2): BatchNorm1d(256, eps=1e-05, momentum=0.1, affine=False, track_running_stats=True)
        )
      )
    )
  )
)
[ INFO : 2022-07-27 16:30:41,129 ] - Adam (
Parameter Group 0
    amsgrad: False
    betas: (0.9, 0.999)
    eps: 1e-08
    initial_lr: 0.001
    lr: 0.001
    maximize: False
    weight_decay: 1e-05
)
[ INFO : 2022-07-27 17:02:46,773 ] - DeepGCCA(
  (model_list): ModuleList(
    (0): MlpNet(
      (layers): ModuleList(
        (0): Sequential(
          (0): Linear(in_features=3072, out_features=1024, bias=True)
          (1): Sigmoid()
          (2): BatchNorm1d(1024, eps=1e-05, momentum=0.1, affine=False, track_running_stats=True)
        )
        (1): Sequential(
          (0): Linear(in_features=1024, out_features=1024, bias=True)
          (1): Sigmoid()
          (2): BatchNorm1d(1024, eps=1e-05, momentum=0.1, affine=False, track_running_stats=True)
        )
        (2): Sequential(
          (0): Linear(in_features=1024, out_features=256, bias=True)
          (1): Sigmoid()
          (2): BatchNorm1d(256, eps=1e-05, momentum=0.1, affine=False, track_running_stats=True)
        )
      )
    )
    (1): MlpNet(
      (layers): ModuleList(
        (0): Sequential(
          (0): Linear(in_features=3072, out_features=1024, bias=True)
          (1): Sigmoid()
          (2): BatchNorm1d(1024, eps=1e-05, momentum=0.1, affine=False, track_running_stats=True)
        )
        (1): Sequential(
          (0): Linear(in_features=1024, out_features=1024, bias=True)
          (1): Sigmoid()
          (2): BatchNorm1d(1024, eps=1e-05, momentum=0.1, affine=False, track_running_stats=True)
        )
        (2): Sequential(
          (0): Linear(in_features=1024, out_features=256, bias=True)
          (1): Sigmoid()
          (2): BatchNorm1d(256, eps=1e-05, momentum=0.1, affine=False, track_running_stats=True)
        )
      )
    )
    (2): MlpNet(
      (layers): ModuleList(
        (0): Sequential(
          (0): Linear(in_features=3072, out_features=1024, bias=True)
          (1): Sigmoid()
          (2): BatchNorm1d(1024, eps=1e-05, momentum=0.1, affine=False, track_running_stats=True)
        )
        (1): Sequential(
          (0): Linear(in_features=1024, out_features=1024, bias=True)
          (1): Sigmoid()
          (2): BatchNorm1d(1024, eps=1e-05, momentum=0.1, affine=False, track_running_stats=True)
        )
        (2): Sequential(
          (0): Linear(in_features=1024, out_features=256, bias=True)
          (1): Sigmoid()
          (2): BatchNorm1d(256, eps=1e-05, momentum=0.1, affine=False, track_running_stats=True)
        )
      )
    )
  )
)
[ INFO : 2022-07-27 17:02:46,773 ] - Adam (
Parameter Group 0
    amsgrad: False
    betas: (0.9, 0.999)
    eps: 1e-08
    initial_lr: 0.001
    lr: 0.001
    maximize: False
    weight_decay: 1e-05
)
[ INFO : 2022-07-27 17:03:05,778 ] - DeepGCCA(
  (model_list): ModuleList(
    (0): MlpNet(
      (layers): ModuleList(
        (0): Sequential(
          (0): Linear(in_features=3072, out_features=1024, bias=True)
          (1): Sigmoid()
          (2): BatchNorm1d(1024, eps=1e-05, momentum=0.1, affine=False, track_running_stats=True)
        )
        (1): Sequential(
          (0): Linear(in_features=1024, out_features=1024, bias=True)
          (1): Sigmoid()
          (2): BatchNorm1d(1024, eps=1e-05, momentum=0.1, affine=False, track_running_stats=True)
        )
        (2): Sequential(
          (0): Linear(in_features=1024, out_features=256, bias=True)
          (1): Sigmoid()
          (2): BatchNorm1d(256, eps=1e-05, momentum=0.1, affine=False, track_running_stats=True)
        )
      )
    )
    (1): MlpNet(
      (layers): ModuleList(
        (0): Sequential(
          (0): Linear(in_features=3072, out_features=1024, bias=True)
          (1): Sigmoid()
          (2): BatchNorm1d(1024, eps=1e-05, momentum=0.1, affine=False, track_running_stats=True)
        )
        (1): Sequential(
          (0): Linear(in_features=1024, out_features=1024, bias=True)
          (1): Sigmoid()
          (2): BatchNorm1d(1024, eps=1e-05, momentum=0.1, affine=False, track_running_stats=True)
        )
        (2): Sequential(
          (0): Linear(in_features=1024, out_features=256, bias=True)
          (1): Sigmoid()
          (2): BatchNorm1d(256, eps=1e-05, momentum=0.1, affine=False, track_running_stats=True)
        )
      )
    )
    (2): MlpNet(
      (layers): ModuleList(
        (0): Sequential(
          (0): Linear(in_features=3072, out_features=1024, bias=True)
          (1): Sigmoid()
          (2): BatchNorm1d(1024, eps=1e-05, momentum=0.1, affine=False, track_running_stats=True)
        )
        (1): Sequential(
          (0): Linear(in_features=1024, out_features=1024, bias=True)
          (1): Sigmoid()
          (2): BatchNorm1d(1024, eps=1e-05, momentum=0.1, affine=False, track_running_stats=True)
        )
        (2): Sequential(
          (0): Linear(in_features=1024, out_features=256, bias=True)
          (1): Sigmoid()
          (2): BatchNorm1d(256, eps=1e-05, momentum=0.1, affine=False, track_running_stats=True)
        )
      )
    )
  )
)
[ INFO : 2022-07-27 17:03:05,778 ] - Adam (
Parameter Group 0
    amsgrad: False
    betas: (0.9, 0.999)
    eps: 1e-08
    initial_lr: 0.001
    lr: 0.001
    maximize: False
    weight_decay: 1e-05
)
[ INFO : 2022-07-27 17:03:54,388 ] - DeepGCCA(
  (model_list): ModuleList(
    (0): MlpNet(
      (layers): ModuleList(
        (0): Sequential(
          (0): Linear(in_features=3072, out_features=1024, bias=True)
          (1): Sigmoid()
          (2): BatchNorm1d(1024, eps=1e-05, momentum=0.1, affine=False, track_running_stats=True)
        )
        (1): Sequential(
          (0): Linear(in_features=1024, out_features=1024, bias=True)
          (1): Sigmoid()
          (2): BatchNorm1d(1024, eps=1e-05, momentum=0.1, affine=False, track_running_stats=True)
        )
        (2): Sequential(
          (0): Linear(in_features=1024, out_features=256, bias=True)
          (1): Sigmoid()
          (2): BatchNorm1d(256, eps=1e-05, momentum=0.1, affine=False, track_running_stats=True)
        )
      )
    )
    (1): MlpNet(
      (layers): ModuleList(
        (0): Sequential(
          (0): Linear(in_features=3072, out_features=1024, bias=True)
          (1): Sigmoid()
          (2): BatchNorm1d(1024, eps=1e-05, momentum=0.1, affine=False, track_running_stats=True)
        )
        (1): Sequential(
          (0): Linear(in_features=1024, out_features=1024, bias=True)
          (1): Sigmoid()
          (2): BatchNorm1d(1024, eps=1e-05, momentum=0.1, affine=False, track_running_stats=True)
        )
        (2): Sequential(
          (0): Linear(in_features=1024, out_features=256, bias=True)
          (1): Sigmoid()
          (2): BatchNorm1d(256, eps=1e-05, momentum=0.1, affine=False, track_running_stats=True)
        )
      )
    )
    (2): MlpNet(
      (layers): ModuleList(
        (0): Sequential(
          (0): Linear(in_features=3072, out_features=1024, bias=True)
          (1): Sigmoid()
          (2): BatchNorm1d(1024, eps=1e-05, momentum=0.1, affine=False, track_running_stats=True)
        )
        (1): Sequential(
          (0): Linear(in_features=1024, out_features=1024, bias=True)
          (1): Sigmoid()
          (2): BatchNorm1d(1024, eps=1e-05, momentum=0.1, affine=False, track_running_stats=True)
        )
        (2): Sequential(
          (0): Linear(in_features=1024, out_features=256, bias=True)
          (1): Sigmoid()
          (2): BatchNorm1d(256, eps=1e-05, momentum=0.1, affine=False, track_running_stats=True)
        )
      )
    )
  )
)
[ INFO : 2022-07-27 17:03:54,389 ] - Adam (
Parameter Group 0
    amsgrad: False
    betas: (0.9, 0.999)
    eps: 1e-08
    initial_lr: 0.001
    lr: 0.001
    maximize: False
    weight_decay: 1e-05
)
[ INFO : 2022-07-27 17:04:27,363 ] - Epoch 1: val_loss improved from 0.0000 to -15.7151, saving model to ./DGCCA.model
…
[ INFO : 2023-02-21 15:19:26,313 ] - Epoch 18/200 - time: 25.36 - training_loss: -16.9831 - val_loss: -17.0796
[ INFO : 2023-02-21 15:19:51,343 ] - Epoch 19: val_loss improved from -17.0796 to -17.0903, saving model to ./DGCCA.model
[ INFO : 2023-02-21 15:19:51,638 ] - Epoch 19/200 - time: 25.32 - training_loss: -16.9969 - val_loss: -17.0903
[ INFO : 2023-02-21 15:20:16,954 ] - Epoch 20: val_loss did not improve from -17.0903
[ INFO : 2023-02-21 15:20:16,955 ] - Epoch 20/200 - time: 25.32 - training_loss: -17.0094 - val_loss: -17.0746
[ INFO : 2023-02-21 15:21:57,817 ] - DeepGCCA(
  (model_list): ModuleList(
    (0): MlpNet(
      (layers): ModuleList(
        (0): Sequential(
          (0): Linear(in_features=3072, out_features=1024, bias=True)
          (1): Sigmoid()
          (2): BatchNorm1d(1024, eps=1e-05, momentum=0.1, affine=False, track_running_stats=True)
        )
        (1): Sequential(
          (0): Linear(in_features=1024, out_features=1024, bias=True)
          (1): Sigmoid()
          (2): BatchNorm1d(1024, eps=1e-05, momentum=0.1, affine=False, track_running_stats=True)
        )
        (2): Sequential(
          (0): Linear(in_features=1024, out_features=256, bias=True)
          (1): Sigmoid()
          (2): BatchNorm1d(256, eps=1e-05, momentum=0.1, affine=False, track_running_stats=True)
        )
      )
    )
    (1): MlpNet(
      (layers): ModuleList(
        (0): Sequential(
          (0): Linear(in_features=3072, out_features=1024, bias=True)
          (1): Sigmoid()
          (2): BatchNorm1d(1024, eps=1e-05, momentum=0.1, affine=False, track_running_stats=True)
        )
        (1): Sequential(
          (0): Linear(in_features=1024, out_features=1024, bias=True)
          (1): Sigmoid()
          (2): BatchNorm1d(1024, eps=1e-05, momentum=0.1, affine=False, track_running_stats=True)
        )
        (2): Sequential(
          (0): Linear(in_features=1024, out_features=256, bias=True)
          (1): Sigmoid()
          (2): BatchNorm1d(256, eps=1e-05, momentum=0.1, affine=False, track_running_stats=True)
        )
      )
    )
    (2): MlpNet(
      (layers): ModuleList(
        (0): Sequential(
          (0): Linear(in_features=3072, out_features=1024, bias=True)
          (1): Sigmoid()
          (2): BatchNorm1d(1024, eps=1e-05, momentum=0.1, affine=False, track_running_stats=True)
        )
        (1): Sequential(
          (0): Linear(in_features=1024, out_features=1024, bias=True)
          (1): Sigmoid()
          (2): BatchNorm1d(1024, eps=1e-05, momentum=0.1, affine=False, track_running_stats=True)
        )
        (2): Sequential(
          (0): Linear(in_features=1024, out_features=256, bias=True)
          (1): Sigmoid()
          (2): BatchNorm1d(256, eps=1e-05, momentum=0.1, affine=False, track_running_stats=True)
        )
      )
    )
  )
)
[ INFO : 2023-02-21 15:21:57,817 ] - Adam (
Parameter Group 0
    amsgrad: False
    betas: (0.9, 0.999)
    eps: 1e-08
    initial_lr: 0.001
    lr: 0.001
    maximize: False
    weight_decay: 1e-05
)
[ INFO : 2023-02-21 15:22:25,784 ] - Epoch 1: val_loss improved from 0.0000 to -15.5885, saving model to ./DGCCA.model
[ INFO : 2023-02-21 15:22:26,134 ] - Epoch 1/200 - time: 28.32 - training_loss: -15.3553 - val_loss: -15.5885
[ INFO : 2023-02-21 15:34:37,111 ] - DeepGCCA(
  (model_list): ModuleList(
    (0): MlpNet(
      (layers): ModuleList(
        (0): Sequential(
          (0): Linear(in_features=3072, out_features=1024, bias=True)
          (1): Sigmoid()
          (2): BatchNorm1d(1024, eps=1e-05, momentum=0.1, affine=False, track_running_stats=True)
        )
        (1): Sequential(
          (0): Linear(in_features=1024, out_features=1024, bias=True)
          (1): Sigmoid()
          (2): BatchNorm1d(1024, eps=1e-05, momentum=0.1, affine=False, track_running_stats=True)
        )
        (2): Sequential(
          (0): Linear(in_features=1024, out_features=256, bias=True)
          (1): Sigmoid()
          (2): BatchNorm1d(256, eps=1e-05, momentum=0.1, affine=False, track_running_stats=True)
        )
      )
    )
    (1): MlpNet(
      (layers): ModuleList(
        (0): Sequential(
          (0): Linear(in_features=3072, out_features=1024, bias=True)
          (1): Sigmoid()
          (2): BatchNorm1d(1024, eps=1e-05, momentum=0.1, affine=False, track_running_stats=True)
        )
        (1): Sequential(
          (0): Linear(in_features=1024, out_features=1024, bias=True)
          (1): Sigmoid()
          (2): BatchNorm1d(1024, eps=1e-05, momentum=0.1, affine=False, track_running_stats=True)
        )
        (2): Sequential(
          (0): Linear(in_features=1024, out_features=256, bias=True)
          (1): Sigmoid()
          (2): BatchNorm1d(256, eps=1e-05, momentum=0.1, affine=False, track_running_stats=True)
        )
      )
    )
    (2): MlpNet(
      (layers): ModuleList(
        (0): Sequential(
          (0): Linear(in_features=3072, out_features=1024, bias=True)
          (1): Sigmoid()
          (2): BatchNorm1d(1024, eps=1e-05, momentum=0.1, affine=False, track_running_stats=True)
        )
        (1): Sequential(
          (0): Linear(in_features=1024, out_features=1024, bias=True)
          (1): Sigmoid()
          (2): BatchNorm1d(1024, eps=1e-05, momentum=0.1, affine=False, track_running_stats=True)
        )
        (2): Sequential(
          (0): Linear(in_features=1024, out_features=256, bias=True)
          (1): Sigmoid()
          (2): BatchNorm1d(256, eps=1e-05, momentum=0.1, affine=False, track_running_stats=True)
        )
      )
    )
  )
)
[ INFO : 2023-02-21 15:34:37,112 ] - Adam (
Parameter Group 0
    amsgrad: False
    betas: (0.9, 0.999)
    eps: 1e-08
    initial_lr: 0.001
    lr: 0.001
    maximize: False
    weight_decay: 1e-05
)
[ INFO : 2023-02-21 15:35:14,379 ] - Epoch 1: val_loss improved from 0.0000 to -15.5970, saving model to ./DGCCA.model
…
