[ INFO : 2023-02-21 18:08:41,107 ] - DeepGCCA(
  (model_list): ModuleList(
    (0): MlpNet(
      (layers): ModuleList(
        (0): Sequential(
          (0): Linear(in_features=3072, out_features=1024, bias=True)
          (1): Sigmoid()
          (2): BatchNorm1d(1024, eps=1e-05, momentum=0.1, affine=False, track_running_stats=True)
        )
        (1): Sequential(
          (0): Linear(in_features=1024, out_features=1024, bias=True)
          (1): Sigmoid()
          (2): BatchNorm1d(1024, eps=1e-05, momentum=0.1, affine=False, track_running_stats=True)
        )
        (2): Sequential(
          (0): Linear(in_features=1024, out_features=256, bias=True)
          (1): Sigmoid()
          (2): BatchNorm1d(256, eps=1e-05, momentum=0.1, affine=False, track_running_stats=True)
        )
      )
    )
    (1): MlpNet(
      (layers): ModuleList(
        (0): Sequential(
          (0): Linear(in_features=3072, out_features=1024, bias=True)
          (1): Sigmoid()
          (2): BatchNorm1d(1024, eps=1e-05, momentum=0.1, affine=False, track_running_stats=True)
        )
        (1): Sequential(
          (0): Linear(in_features=1024, out_features=1024, bias=True)
          (1): Sigmoid()
          (2): BatchNorm1d(1024, eps=1e-05, momentum=0.1, affine=False, track_running_stats=True)
        )
        (2): Sequential(
          (0): Linear(in_features=1024, out_features=256, bias=True)
          (1): Sigmoid()
          (2): BatchNorm1d(256, eps=1e-05, momentum=0.1, affine=False, track_running_stats=True)
        )
      )
    )
    (2): MlpNet(
      (layers): ModuleList(
        (0): Sequential(
          (0): Linear(in_features=3072, out_features=1024, bias=True)
          (1): Sigmoid()
          (2): BatchNorm1d(1024, eps=1e-05, momentum=0.1, affine=False, track_running_stats=True)
        )
        (1): Sequential(
          (0): Linear(in_features=1024, out_features=1024, bias=True)
          (1): Sigmoid()
          (2): BatchNorm1d(1024, eps=1e-05, momentum=0.1, affine=False, track_running_stats=True)
        )
        (2): Sequential(
          (0): Linear(in_features=1024, out_features=256, bias=True)
          (1): Sigmoid()
          (2): BatchNorm1d(256, eps=1e-05, momentum=0.1, affine=False, track_running_stats=True)
        )
      )
    )
  )
)
[ INFO : 2023-02-21 18:08:41,108 ] - Adam (
Parameter Group 0
    amsgrad: False
    betas: (0.9, 0.999)
    eps: 1e-08
    initial_lr: 0.001
    lr: 0.001
    maximize: False
    weight_decay: 1e-05
)
[ INFO : 2023-02-21 18:09:10,040 ] - Epoch 1: val_loss improved from 0.0000 to -15.5708, saving model to ./DGCCA.model
…
